…
torch", "nodes": [{"name": "conv_stem", "id": 140438557381128, "class_name": "Conv2dSame(3, 40, kernel_size=(3, 3), stride=(2, 2), bias=False)", "parameters": [["weight", [40, 3, 3, 3]]], "output_shape": [[256, 40, 32, 32]], "num_parameters": [1080]}, {"name": "bn1", "id": 140438557383704, "class_name": "BatchNorm2d(40, eps=0.001, momentum=0.1, affine=True, track_running_stats=True)", "parameters": [["weight", [40]], ["bias", [40]]], "output_shape": [[256, 40, 32, 32]], "num_parameters": [40, 40]}, {"name": "blocks.0.0", "id": 140438557382920, "class_name": "DepthwiseSeparableConv(\n  (conv_dw): Conv2d(40, 40, kernel_size=(3, 3), stride=(1, 1), padding=(1, 1), groups=40, bias=False)\n  (bn1): BatchNorm2d(40, eps=0.001, momentum=0.1, affine=True, track_running_stats=True)\n  (se): SqueezeExcite(\n    (conv_reduce): Conv2d(40, 10, kernel_size=(1, 1), stride=(1, 1))\n    (conv_expand): Conv2d(10, 40, kernel_size=(1, 1), stride=(1, 1))\n  )\n  (conv_pw): Conv2d(40, 24, kernel_size=(1, 1), stride=(1, 1), bias=False)\n  (bn2): BatchNorm2d(24, eps=0.001, momentum=0.1, affine=True, track_running_stats=True)\n)", "parameters": [["conv_dw.weight", [40, 1, 3, 3]], ["bn1.weight", [40]], ["bn1.bias", [40]], ["se.conv_reduce.weight", [10, 40, 1, 1]], ["se.conv_reduce.bias", [10]], ["se.conv_expand.weight", [40, 10, 1, 1]], ["se.conv_expand.bias", [40]], ["conv_pw.weight", [24, 40, 1, 1]], ["bn2.weight", [24]], ["bn2.bias", [24]]], "output_shape": [[256, 24, 32, 32]], "num_parameters": [360, 40, 40, 400, 10, 400, 40, 960, 24, 24]}, {"name": "blocks.0.1", "id": 140438680665224, "class_name": "DepthwiseSeparableConv(\n  (conv_dw): Conv2d(24, 24, kernel_size=(3, 3), stride=(1, 1), padding=(1, 1), groups=24, bias=False)\n  (bn1): BatchNorm2d(24, eps=0.001, momentum=0.1, affine=True, track_running_stats=True)\n  (se): SqueezeExcite(\n    (conv_reduce): Conv2d(24, 6, kernel_size=(1, 1), stride=(1, 1))\n    (conv_expand): Conv2d(6, 24, kernel_size=(1, 1), stride=(1, 1))\n  )\n  (conv_pw): Conv2d(24, 24, kernel_size=(1, 1), stride=(1, 1), bias=False)\n  (bn2): BatchNorm2d(24, eps=0.001, momentum=0.1, affine=True, track_running_stats=True)\n)", "parameters": [["conv_dw.weight", [24, 1, 3, 3]], ["bn1.weight", [24]], ["bn1.bias", [24]], ["se.conv_reduce.weight", [6, 24, 1, 1]], ["se.conv_reduce.bias", [6]], ["se.conv_expand.weight", [24, 6, 1, 1]], ["se.conv_expand.bias", [24]], ["conv_pw.weight", [24, 24, 1, 1]], ["bn2.weight", [24]], ["bn2.bias", [24]]], "output_shape": [[256, 24, 32, 32]], "num_parameters": [216, 24, 24, 144, 6, 144, 24, 576, 24, 24]}, {"name": "blocks.1.0", "id": 140438676598736, "class_name": "InvertedResidual(\n  (conv_pw): Conv2d(24, 144, kernel_size=(1, 1), stride=(1, 1), bias=False)\n  (bn1): BatchNorm2d(144, eps=0.001, momentum=0.1, affine=True, track_running_stats=True)\n  (conv_dw): Conv2dSame(144, 144, kernel_size=(3, 3), stride=(2, 2), groups=144, bias=False)\n  (bn2): BatchNorm2d(144, eps=0.001, momentum=0.1, affine=True, track_running_stats=True)\n  (se): SqueezeExcite(\n    (conv_reduce): Conv2d(144, 6, kernel_size=(1, 1), stride=(1, 1))\n    (conv_expand): Conv2d(6, 144, kernel_size=(1, 1), stride=(1, 1))\n  )\n  (conv_pwl): Conv2d(144, 32, kernel_size=(1, 1), stride=(1, 1), bias=False)\n  (bn3): BatchNorm2d(32, eps=0.001, momentum=0.1, affine=True, track_running_stats=True)\n)", "parameters": [["conv_pw.weight", [144, 24, 1, 1]], ["bn1.weight", [144]], ["bn1.bias", [144]], ["conv_dw.weight", [144, 1, 3, 3]], ["bn2.weight", [144]], ["bn2.bias", [144]], ["se.conv_reduce.weight", [6, 144, 1, 1]], ["se.conv_reduce.bias", [6]], ["se.conv_expand.weight", [144, 6, 1, 1]], ["se.conv_expand.bias", [144]], ["conv_pwl.weight", [32, 144, 1, 1]], ["bn3.weight", [32]], ["bn3.bias", [32]]], "output_shape": [[256, 32, 16, 16]], "num_parameters": [3456, 144, 144, 1296, 144, 144, 864, 6, 864, 144, 4608, 32, 32]}, {"name": "blocks.1.1", "id": 140438557424160, "class_name": "InvertedResidual(\n  (conv_pw): Conv2d(32, 192, kernel_size=(1, 1), stride=(1, 1), bias=False)\n  (bn1): BatchNorm2d(192, eps=0.001, momentum=0.1, affine=True, track_running_stats=True)\n  (conv_dw): Conv2d(192, 192, kernel_size=(3, 3), stride=(1, 1), padding=(1, 1), groups=192, bias=False)\n  (bn2): BatchNorm2d(192, eps=0.001, momentum=0.1, affine=True, track_running_stats=True)\n  (se): SqueezeExcite(\n    (conv_reduce): Conv2d(192, 8, kernel_size=(1, 1), stride=(1, 1))\n    (conv_expand): Conv2d(8, 192, kernel_size=(1, 1), stride=(1, 1))\n  )\n  (conv_pwl): Conv2d(192, 32, kernel_size=(1, 1), stride=(1, 1), bias=False)\n  (bn3): BatchNorm2d(32, eps=0.001, momentum=0.1, affine=True, track_running_stats=True)\n)", "parameters": [["conv_pw.weight", [192, 32, 1, 1]], ["bn1.weight", [192]], ["bn1.bias", [192]], ["conv_dw.weight", [192, 1, 3, 3]], ["bn2.weight", [192]], ["bn2.bias", [192]], ["se.conv_reduce.weight", [8, 192, 1, 1]], ["se.conv_reduce.bias", [8]], ["se.conv_expand.weight", [192, 8, 1, 1]], ["se.conv_expand.bias", [192]], ["conv_pwl.weight", [32, 192, 1, 1]], ["bn3.weight", [32]], ["bn3.bias", [32]]], "output_shape": [[256, 32, 16, 16]], "num_parameters": [6144, 192, 192, 1728, 192, 192, 1536, 8, 1536, 192, 6144, 32, 32]}, {"name": "blocks.1.2", "id": 140438679559640, "class_name": "InvertedResidual(\n  (conv_pw): Conv2d(32, 192, kernel_size=(1, 1), stride=(1, 1), bias=False)\n  (bn1): BatchNorm2d(192, eps=0.001, momentum=0.1, affine=True, track_running_stats=True)\n  (conv_dw): Conv2d(192, 192, kernel_size=(3, 3), stride=(1, 1), padding=(1, 1), groups=192, bias=False)\n  (bn2): BatchNorm2d(192, eps=0.001, momentum=0.1, affine=True, track_running_stats=True)\n  (se): SqueezeExcite(\n    (conv_reduce): Conv2d(192, 8, kernel_size=(1, 1), stride=(1, 1))\n    (conv_expand): Conv2d(8, 192, kernel_size=(1, 1), stride=(1, 1))\n  )\n  (conv_pwl): Conv2d(192, 32, kernel_size=(1, 1), stride=(1, 1), bias=False)\n  (bn3): BatchNorm2d(32, eps=0.001, momentum=0.1, affine=True, track_running_stats=True)\n)", "parameters": [["conv_pw.weight", [192, 32, 1, 1]], ["bn1.weight", [192]], ["bn1.bias", [192]], ["conv_dw.weight", [192, 1, 3, 3]], ["bn2.weight", [192]], ["bn2.bias", [192]], ["se.conv_reduce.weight", [8, 192, 1, 1]], ["se.conv_reduce.bias", [8]], ["se.conv_expand.weight", [192, 8, 1, 1]], ["se.conv_expand.bias", [192]], ["conv_pwl.weight", [32, 192, 1, 1]], ["bn3.weight", [32]], ["bn3.bias", [32]]], "output_shape": [[256, 32, 16, 16]], "num_parameters": [6144, 192, 192, 1728, 192, 192, 1536, 8, 1536, 192, 6144, 32, 32]}, {"name": "blocks.2.0", "id": 140438679470320, "class_name": "InvertedResidual(\n  (conv_pw): Conv2d(32, 192, kernel_size=(1, 1), stride=(1, 1), bias=False)\n  (bn1): BatchNorm2d(192, eps=0.001, momentum=0.1, affine=True, track_running_stats=True)\n  (conv_dw): Conv2dSame(192, 192, kernel_size=(5, 5), stride=(2, 2), groups=192, bias=False)\n  (bn2): BatchNorm2d(192, eps=0.001, momentum=0.1, affine=True, track_running_stats=True)\n  (se): SqueezeExcite(\n    (conv_reduce): Conv2d(192, 8, kernel_size=(1, 1), stride=(1, 1))\n    (conv_expand): Conv2d(8, 192, kernel_size=(1, 1), stride=(1, 1))\n  )\n  (conv_pwl): Conv2d(192, 48, kernel_size=(1, 1), stride=(1, 1), bias=False)\n  (bn3): BatchNorm2d(48, eps=0.001, momentum=0.1, affine=True, track_running_stats=True)\n)", "parameters": [["conv_pw.weight", [192, 32, 1, 1]], ["bn1.weight", [192]], ["bn1.bias", [192]], ["conv_dw.weight", [192, 1, 5, 5]], ["bn2.weight", [192]], ["bn2.bias", [192]], ["se.conv_reduce.weight", [8, 192, 1, 1]], ["se.conv_reduce.bias", [8]], ["se.conv_expand.weight", [192, 8, 1, 1]], ["se.conv_expand.bias", [192]], ["conv_pwl.weight", [48, 192, 1, 1]], ["bn3.weight", [48]], ["bn3.bias", [48]]], "output_shape": [[256, 48, 8, 8]], "num_parameters": [6144, 192, 192, 4800, 192, 192, 1536, 8, 1536, 192, 9216, 48, 48]}, {"name": "blocks.2.1", "id": 140438557424384, "class_name": "InvertedResidual(\n  (conv_pw): Conv2d(48, 288, kernel_size=(1, 1), stride=(1, 1), bias=False)\n  (bn1): BatchNorm2d(288, eps=0.001, momentum=0.1, affine=True, track_running_stats=True)\n  (conv_dw): Conv2d(288, 288, kernel_size=(5, 5), stride=(1, 1), padding=(2, 2), groups=288, bias=False)\n  (bn2): BatchNorm2d(288, eps=0.001, momentum=0.1, affine=True, track_running_stats=True)\n  (se): SqueezeExcite(\n    (conv_reduce): Conv2d(288, 12, kernel_size=(1, 1), stride=(1, 1))\n    (conv_expand): Conv2d(12, 288, kernel_size=(1, 1), stride=(1, 1))\n  )\n  (conv_pwl): Conv2d(288, 48, kernel_size=(1, 1), stride=(1, 1), bias=False)\n  (bn3): BatchNorm2d(48, eps=0.001, momentum=0.1, affine=True, track_running_stats=True)\n)", "parameters": [["conv_pw.weight", [288, 48, 1, 1]], ["bn1.weight", [288]], ["bn1.bias", [288]], ["conv_dw.weight", [288, 1, 5, 5]], ["bn2.weight", [288]], ["bn2.bias", [288]], ["se.conv_reduce.weight", [12, 288, 1, 1]], ["se.conv_reduce.bias", [12]], ["se.conv_expand.weight", [288, 12, 1, 1]], ["se.conv_expand.bias", [288]], ["conv_pwl.weight", [48, 288, 1, 1]], ["bn3.weight", [48]], ["bn3.bias", [48]]], "output_shape": [[256, 48, 8, 8]], "num_parameters": [13824, 288, 288, 7200, 288, 288, 3456, 12, 3456, 288, 13824, 48, 48]}, {"name": "blocks.2.2", "id": 140438557422704, "class_name": "InvertedResidual(\n  (conv_pw): Conv2d(48, 288, kernel_size=(1, 1), stride=(1, 1), bias=False)\n  (bn1): BatchNorm2d(288, eps=0.001, momentum=0.1, affine=True, track_running_stats=True)\n  (conv_dw): Conv2d(288, 288, kernel_size=(5, 5), stride=(1, 1), padding=(2, 2), groups=288, bias=False)\n  (bn2): BatchNorm2d(288, eps=0.001, momentum=0.1, affine=True, track_running_stats=True)\n  (se): SqueezeExcite(\n    (conv_reduce): Conv2d(288, 12, kernel_size=(1, 1), stride=(1, 1))\n    (conv_expand): Conv2d(12, 288, kernel_size=(1, 1), stride=(1, 1))\n  )\n  (conv_pwl): Conv2d(288, 48, kernel_size=(1, 1), stride=(1, 1), bias=False)\n  (bn3): BatchNorm2d(48, eps=0.001, momentum=0.1, affine=True, track_running_stats=True)\n)", "parameters": [["conv_pw.weight", [288, 48, 1, 1]], ["bn1.weight", [288]], ["bn1.bias", [288]], ["conv_dw.weight", [288, 1, 5, 5]], ["bn2.weight", [288]], ["bn2.bias", [288]], ["se.conv_reduce.weight", [12, 288, 1, 1]], ["se.conv_reduce.bias", [12]], ["se.conv_expand.weight", [288, 12, 1, 1]], ["se.conv_expand.bias", [288]], ["conv_pwl.weight", [48, 288, 1, 1]], ["bn3.weight", [48]], ["bn3.bias", [48]]], "output_shape": [[256, 48, 8, 8]], "num_parameters": [13824, 288, 288, 7200, 288, 288, 3456, 12, 3456, 288, 13824, 48, 48]}, {"name": "blocks.3.0", "id": 140438557421920, "class_name": "InvertedResidual(\n  (conv_pw): Conv2d(48, 288, kernel_size=(1, 1), stride=(1, 1), bias=False)\n  (bn1): BatchNorm2d(288, eps=0.001, momentum=0.1, affine=True, track_running_stats=True)\n  (conv_dw): Conv2dSame(288, 288, kernel_size=(3, 3), stride=(2, 2), groups=288, bias=False)\n  (bn2): BatchNorm2d(288, eps=0.001, momentum=0.1, affine=True, track_running_stats=True)\n  (se): SqueezeExcite(\n    (conv_reduce): Conv2d(288, 12, kernel_size=(1, 1), stride=(1, 1))\n    (conv_expand): Conv2d(12, 288, kernel_size=(1, 1), stride=(1, 1))\n  )\n  (conv_pwl): Conv2d(288, 96, kernel_size=(1, 1), stride=(1, 1), bias=False)\n  (bn3): BatchNorm2d(96, eps=0.001, momentum=0.1, affine=True, track_running_stats=True)\n)", "parameters": [["conv_pw.weight", [288, 48, 1, 1]], ["bn1.weight", [288]], ["bn1.bias", [288]], ["conv_dw.weight", [288, 1, 3, 3]], ["bn2.weight", [288]], ["bn2.bias", [288]], ["se.conv_reduce.weight", [12, 288, 1, 1]], ["se.conv_reduce.bias", [12]], ["se.conv_expand.weight", [288, 12, 1, 1]], ["se.conv_expand.bias", [288]], ["conv_pwl.weight", [96, 288, 1, 1]], ["bn3.weight", [96]], ["bn3.bias", [96]]], "output_shape": [[256, 96, 4, 4]], "num_parameters": [13824, 288, 288, 2592, 288, 288, 3456, 12, 3456, 288, 27648, 96, 96]}, {"name": "blocks.3.1", "id": 140438557422816, "class_name": "InvertedResidual(\n  (conv_pw): Conv2d(96, 576, kernel_size=(1, 1), stride=(1, 1), bias=False)\n  (bn1): BatchNorm2d(576, eps=0.001, momentum=0.1, affine=True, track_running_stats=True)\n  (conv_dw): Conv2d(576, 576, kernel_size=(3, 3), stride=(1, 1), padding=(1, 1), groups=576, bias=False)\n  (bn2): BatchNorm2d(576, eps=0.001, momentum=0.1, affine=True, track_running_stats=True)\n  (se): SqueezeExcite(\n    (conv_reduce): Conv2d(576, 24, kernel_size=(1, 1), stride=(1, 1))\n    (conv_expand): Conv2d(24, 576, kernel_size=(1, 1), stride=(1, 1))\n  )\n  (conv_pwl): Conv2d(576, 96, kernel_size=(1, 1), stride=(1, 1), bias=False)\n  (bn3): BatchNorm2d(96, eps=0.001, momentum=0.1, affine=True, track_running_stats=True)\n)", "parameters": [["conv_pw.weight", [576, 96, 1, 1]], ["bn1.weight", [576]], ["bn1.bias", [576]], ["conv_dw.weight", [576, 1, 3, 3]], ["bn2.weight", [576]], ["bn2.bias", [576]], ["se.conv_reduce.weight", [24, 576, 1, 1]], ["se.conv_reduce.bias", [24]], ["se.conv_expand.weight", [576, 24, 1, 1]], ["se.conv_expand.bias", [576]], ["conv_pwl.weight", [96, 576, 1, 1]], ["bn3.weight", [96]], ["bn3.bias", [96]]], "output_shape": [[256, 96, 4, 4]], "num_parameters": [55296, 576, 576, 5184, 576, 576, 13824, 24, 13824, 576, 55296, 96, 96]}, {"name": "blocks.3.2", "id": 140438557824392, "class_name": "InvertedResidual(\n  (conv_pw): Conv2d(96, 576, kernel_size=(1, 1), stride=(1, 1), bias=False)\n  (bn1): BatchNorm2d(576, eps=0.001, momentum=0.1, affine=True, track_running_stats=True)\n  (conv_dw): Conv2d(576, 576, kernel_size=(3, 3), stride=(1, 1), padding=(1, 1), groups=576, bias=False)\n  (bn2): BatchNorm2d(576, eps=0.001, momentum=0.1, affine=True, track_running_stats=True)\n  (se): SqueezeExcite(\n    (conv_reduce): Conv2d(576, 24, kernel_size=(1, 1), stride=(1, 1))\n    (conv_expand): Conv2d(24, 576, kernel_size=(1, 1), stride=(1, 1))\n  )\n  (conv_pwl): Conv2d(576, 96, kernel_size=(1, 1), stride=(1, 1), bias=False)\n  (bn3): BatchNorm2d(96, eps=0.001, momentum=0.1, affine=True, track_running_stats=True)\n)", "parameters": [["conv_pw.weight", [576, 96, 1, 1]], ["bn1.weight", [576]], ["bn1.bias", [576]], ["conv_dw.weight", [576, 1, 3, 3]], ["bn2.weight", [576]], ["bn2.bias", [576]], ["se.conv_reduce.weight", [24, 576, 1, 1]], ["se.conv_reduce.bias", [24]], ["se.conv_expand.weight", [576, 24, 1, 1]], ["se.conv_expand.bias", [576]], ["conv_pwl.weight", [96, 576, 1, 1]], ["bn3.weight", [96]], ["bn3.bias", [96]]], "output_shape": [[256, 96, 4, 4]], "num_parameters": [55296, 576, 576, 5184, 576, 576, 13824, 24, 13824, 576, 55296, 96, 96]}, {"name": "blocks.3.3", "id": 140438557825232, "class_name": "InvertedResidual(\n  (conv_pw): Conv2d(96, 576, kernel_size=(1, 1), stride=(1, 1), bias=False)\n  (bn1): BatchNorm2d(576, eps=0.001, momentum=0.1, affine=True, track_running_stats=True)\n  (conv_dw): Conv2d(576, 576, kernel_size=(3, 3), stride=(1, 1), padding=(1, 1), groups=576, bias=False)\n  (bn2): BatchNorm2d(576, eps=0.001, momentum=0.1, affine=True, track_running_stats=True)\n  (se): SqueezeExcite(\n    (conv_reduce): Conv2d(576, 24, kernel_size=(1, 1), stride=(1, 1))\n    (conv_expand): Conv2d(24, 576, kernel_size=(1, 1), stride=(1, 1))\n  )\n  (conv_pwl): Conv2d(576, 96, kernel_size=(1, 1), stride=(1, 1), bias=False)\n  (bn3): BatchNorm2d(96, eps=0.001, momentum=0.1, affine=True, track_running_stats=True)\n)", "parameters": [["conv_pw.weight", [576, 96, 1, 1]], ["bn1.weight", [576]], ["bn1.bias", [576]], ["conv_dw.weight", [576, 1, 3, 3]], ["bn2.weight", [576]], ["bn2.bias", [576]], ["se.conv_reduce.weight", [24, 576, 1, 1]], ["se.conv_reduce.bias", [24]], ["se.conv_expand.weight", [576, 24, 1, 1]], ["se.conv_expand.bias", [576]], ["conv_pwl.weight", [96, 576, 1, 1]], ["bn3.weight", [96]], ["bn3.bias", [96]]], "output_shape": [[256, 96, 4, 4]], "num_parameters": [55296, 576, 576, 5184, 576, 576, 13824, 24, 13824, 576, 55296, 96, 96]}, {"name": "blocks.3.4", "id": 140438557825176, "class_name": "InvertedResidual(\n  (conv_pw): Conv2d(96, 576, kernel_size=(1, 1), stride=(1, 1), bias=False)\n  (bn1): BatchNorm2d(576, eps=0.001, momentum=0.1, affine=True, track_running_stats=True)\n  (conv_dw): Conv2d(576, 576, kernel_size=(3, 3), stride=(1, 1), padding=(1, 1), groups=576, bias=False)\n  (bn2): BatchNorm2d(576, eps=0.001, momentum=0.1, affine=True, track_running_stats=True)\n  (se): SqueezeExcite(\n    (conv_reduce): Conv2d(576, 24, kernel_size=(1, 1), stride=(1, 1))\n    (conv_expand): Conv2d(24, 576, kernel_size=(1, 1), stride=(1, 1))\n  )\n  (conv_pwl): Conv2d(576, 96, kernel_size=(1, 1), stride=(1, 1), bias=False)\n  (bn3): BatchNorm2d(96, eps=0.001, momentum=0.1, affine=True, track_running_stats=True)\n)", "parameters": [["conv_pw.weight", [576, 96, 1, 1]], ["bn1.weight", [576]], ["bn1.bias", [576]], ["conv_dw.weight", [576, 1, 3, 3]], ["bn2.weight", [576]], ["bn2.bias", [576]], ["se.conv_reduce.weight", [24, 576, 1, 1]], ["se.conv_reduce.bias", [24]], ["se.conv_expand.weight", [576, 24, 1, 1]], ["se.conv_expand.bias", [576]], ["conv_pwl.weight", [96, 576, 1, 1]], ["bn3.weight", [96]], ["bn3.bias", [96]]], "output_shape": [[256, 96, 4, 4]], "num_parameters": [55296, 576, 576, 5184, 576, 576, 13824, 24, 13824, 576, 55296, 96, 96]}, {"name": "blocks.4.0", "id": 140438557824672, "class_name": "InvertedResidual(\n  (conv_pw): Conv2d(96, 576, kernel_size=(1, 1), stride=(1, 1), bias=False)\n  (bn1): BatchNorm2d(576, eps=0.001, momentum=0.1, affine=True, track_running_stats=True)\n  (conv_dw): Conv2d(576, 576, kernel_size=(5, 5), stride=(1, 1), padding=(2, 2), groups=576, bias=False)\n  (bn2): BatchNorm2d(576, eps=0.001, momentum=0.1, affine=True, track_running_stats=True)\n  (se): SqueezeExcite(\n    (conv_reduce): Conv2d(576, 24, kernel_size=(1, 1), stride=(1, 1))\n    (conv_expand): Conv2d(24, 576, kernel_size=(1, 1), stride=(1, 1))\n  )\n  (conv_pwl): Conv2d(576, 136, kernel_size=(1, 1), stride=(1, 1), bias=False)\n  (bn3): BatchNorm2d(136, eps=0.001, momentum=0.1, affine=True, track_running_stats=True)\n)", "parameters": [["conv_pw.weight", [576, 96, 1, 1]], ["bn1.weight", [576]], ["bn1.bias", [576]], ["conv_dw.weight", [576, 1, 5, 5]], ["bn2.weight", [576]], ["bn2.bias", [576]], ["se.conv_reduce.weight", [24, 576, 1, 1]], ["se.conv_reduce.bias", [24]], ["se.conv_expand.weight", [576, 24, 1, 1]], ["se.conv_expand.bias", [576]], ["conv_pwl.weight", [136, 576, 1, 1]], ["bn3.weight", [136]], ["bn3.bias", [136]]], "output_shape": [[256, 136, 4, 4]], "num_parameters": [55296, 576, 576, 14400, 576, 576, 13824, 24, 13824, 576, 78336, 136, 136]}, {"name": "blocks.4.1", "id": 140438557823496, "class_name": "InvertedResidual(\n  (conv_pw): Conv2d(136, 816, kernel_size=(1, 1), stride=(1, 1), bias=False)\n  (bn1): BatchNorm2d(816, eps=0.001, momentum=0.1, affine=True, track_running_stats=True)\n  (conv_dw): Conv2d(816, 816, kernel_size=(5, 5), stride=(1, 1), padding=(2, 2), groups=816, bias=False)\n  (bn2): BatchNorm2d(816, eps=0.001, momentum=0.1, affine=True, track_running_stats=True)\n  (se): SqueezeExcite(\n    (conv_reduce): Conv2d(816, 34, kernel_size=(1, 1), stride=(1, 1))\n    (conv_expand): Conv2d(34, 816, kernel_size=(1, 1), stride=(1, 1))\n  )\n  (conv_pwl): Conv2d(816, 136, kernel_size=(1, 1), stride=(1, 1), bias=False)\n  (bn3): BatchNorm2d(136, eps=0.001, momentum=0.1, affine=True, track_running_stats=True)\n)", "parameters": [["conv_pw.weight", [816, 136, 1, 1]], ["bn1.weight", [816]], ["bn1.bias", [816]], ["conv_dw.weight", [816, 1, 5, 5]], ["bn2.weight", [816]], ["bn2.bias", [816]], ["se.conv_reduce.weight", [34, 816, 1, 1]], ["se.conv_reduce.bias", [34]], ["se.conv_expand.weight", [816, 34, 1, 1]], ["se.conv_expand.bias", [816]], ["conv_pwl.weight", [136, 816, 1, 1]], ["bn3.weight", [136]], ["bn3.bias", [136]]], "output_shape": [[256, 136, 4, 4]], "num_parameters": [110976, 816, 816, 20400, 816, 816, 27744, 34, 27744, 816, 110976, 136, 136]}, {"name": "blocks.4.2", "id": 140438679158968, "class_name": "InvertedResidual(\n  (conv_pw): Conv2d(136, 816, kernel_size=(1, 1), stride=(1, 1), bias=False)\n  (bn1): BatchNorm2d(816, eps=0.001, momentum=0.1, affine=True, track_running_stats=True)\n  (conv_dw): Conv2d(816, 816, kernel_size=(5, 5), stride=(1, 1), padding=(2, 2), groups=816, bias=False)\n  (bn2): BatchNorm2d(816, eps=0.001, momentum=0.1, affine=True, track_running_stats=True)\n  (se): SqueezeExcite(\n    (conv_reduce): Conv2d(816, 34, kernel_size=(1, 1), stride=(1, 1))\n    (conv_expand): Conv2d(34, 816, kernel_size=(1, 1), stride=(1, 1))\n  )\n  (conv_pwl): Conv2d(816, 136, kernel_size=(1, 1), stride=(1, 1), bias=False)\n  (bn3): BatchNorm2d(136, eps=0.001, momentum=0.1, affine=True, track_running_stats=True)\n)", "parameters": [["conv_pw.weight", [816, 136, 1, 1]], ["bn1.weight", [816]], ["bn1.bias", [816]], ["conv_dw.weight", [816, 1, 5, 5]], ["bn2.weight", [816]], ["bn2.bias", [816]], ["se.conv_reduce.weight", [34, 816, 1, 1]], ["se.conv_reduce.bias", [34]], ["se.conv_expand.weight", [816, 34, 1, 1]], ["se.conv_expand.bias", [816]], ["conv_pwl.weight", [136, 816, 1, 1]], ["bn3.weight", [136]], ["bn3.bias", [136]]], "output_shape": [[256, 136, 4, 4]], "num_parameters": [110976, 816, 816, 20400, 816, 816, 27744, 34, 27744, 816, 110976, 136, 136]}, {"name": "blocks.4.3", "id": 140438679496744, "class_name": "InvertedResidual(\n  (conv_pw): Conv2d(136, 816, kernel_size=(1, 1), stride=(1, 1), bias=False)\n  (bn1): BatchNorm2d(816, eps=0.001, momentum=0.1, affine=True, track_running_stats=True)\n  (conv_dw): Conv2d(816, 816, kernel_size=(5, 5), stride=(1, 1), padding=(2, 2), groups=816, bias=False)\n  (bn2): BatchNorm2d(816, eps=0.001, momentum=0.1, affine=True, track_running_stats=True)\n  (se): SqueezeExcite(\n    (conv_reduce): Conv2d(816, 34, kernel_size=(1, 1), stride=(1, 1))\n    (conv_expand): Conv2d(34, 816, kernel_size=(1, 1), stride=(1, 1))\n  )\n  (conv_pwl): Conv2d(816, 136, kernel_size=(1, 1), stride=(1, 1), bias=False)\n  (bn3): BatchNorm2d(136, eps=0.001, momentum=0.1, affine=True, track_running_stats=True)\n)", "parameters": [["conv_pw.weight", [816, 136, 1, 1]], ["bn1.weight", [816]], ["bn1.bias", [816]], ["conv_dw.weight", [816, 1, 5, 5]], ["bn2.weight", [816]], ["bn2.bias", [816]], ["se.conv_reduce.weight", [34, 816, 1, 1]], ["se.conv_reduce.bias", [34]], ["se.conv_expand.weight", [816, 34, 1, 1]], ["se.conv_expand.bias", [816]], ["conv_pwl.weight", [136, 816, 1, 1]], ["bn3.weight", [136]], ["bn3.bias", [136]]], "output_shape": [[256, 136, 4, 4]], "num_parameters": [110976, 816, 816, 20400, 816, 816, 27744, 34, 27744, 816, 110976, 136, 136]}, {"name": "blocks.4.4", "id": 140438679422456, "class_name": "InvertedResidual(\n  (conv_pw): Conv2d(136, 816, kernel_size=(1, 1), stride=(1, 1), bias=False)\n  (bn1): BatchNorm2d(816, eps=0.001, momentum=0.1, affine=True, track_running_stats=True)\n  (conv_dw): Conv2d(816, 816, kernel_size=(5, 5), stride=(1, 1), padding=(2, 2), groups=816, bias=False)\n  (bn2): BatchNorm2d(816, eps=0.001, momentum=0.1, affine=True, track_running_stats=True)\n  (se): SqueezeExcite(\n    (conv_reduce): Conv2d(816, 34, kernel_size=(1, 1), stride=(1, 1))\n    (conv_expand): Conv2d(34, 816, kernel_size=(1, 1), stride=(1, 1))\n  )\n  (conv_pwl): Conv2d(816, 136, kernel_size=(1, 1), stride=(1, 1), bias=False)\n  (bn3): BatchNorm2d(136, eps=0.001, momentum=0.1, affine=True, track_running_stats=True)\n)", "parameters": [["conv_pw.weight", [816, 136, 1, 1]], ["bn1.weight", [816]], ["bn1.bias", [816]], ["conv_dw.weight", [816, 1, 5, 5]], ["bn2.weight", [816]], ["bn2.bias", [816]], ["se.conv_reduce.weight", [34, 816, 1, 1]], ["se.conv_reduce.bias", [34]], ["se.conv_expand.weight", [816, 34, 1, 1]], ["se.conv_expand.bias", [816]], ["conv_pwl.weight", [136, 816, 1, 1]], ["bn3.weight", [136]], ["bn3.bias", [136]]], "output_shape": [[256, 136, 4, 4]], "num_parameters": [110976, 816, 816, 20400, 816, 816, 27744, 34, 27744, 816, 110976, 136, 136]}, {"name": "blocks.5.0", "id": 140438679421448, "class_name": "InvertedResidual(\n  (conv_pw): Conv2d(136, 816, kernel_size=(1, 1), stride=(1, 1), bias=False)\n  (bn1): BatchNorm2d(816, eps=0.001, momentum=0.1, affine=True, track_running_stats=True)\n  (conv_dw): Conv2dSame(816, 816, kernel_size=(5, 5), stride=(2, 2), groups=816, bias=False)\n  (bn2): BatchNorm2d(816, eps=0.001, momentum=0.1, affine=True, track_running_stats=True)\n  (se): SqueezeExcite(\n    (conv_reduce): Conv2d(816, 34, kernel_size=(1, 1), stride=(1, 1))\n    (conv_expand): Conv2d(34, 816, kernel_size=(1, 1), stride=(1, 1))\n  )\n  (conv_pwl): Conv2d(816, 232, kernel_size=(1, 1), stride=(1, 1), bias=False)\n  (bn3): BatchNorm2d(232, eps=0.001, momentum=0.1, affine=True, track_running_stats=True)\n)", "parameters": [["conv_pw.weight", [816, 136, 1, 1]], ["bn1.weight", [816]], ["bn1.bias", [816]], ["conv_dw.weight", [816, 1, 5, 5]], ["bn2.weight", [816]], ["bn2.bias", [816]], ["se.conv_reduce.weight", [34, 816, 1, 1]], ["se.conv_reduce.bias", [34]], ["se.conv_expand.weight", [816, 34, 1, 1]], ["se.conv_expand.bias", [816]], ["conv_pwl.weight", [232, 816, 1, 1]], ["bn3.weight", [232]], ["bn3.bias", [232]]], "output_shape": [[256, 232, 2, 2]], "num_parameters": [110976, 816, 816, 20400, 816, 816, 27744, 34, 27744, 816, 189312, 232, 232]}, {"name": "blocks.5.1", "id": 140438679580400, "class_name": "InvertedResidual(\n  (conv_pw): Conv2d(232, 1392, kernel_size=(1, 1), stride=(1, 1), bias=False)\n  (bn1): BatchNorm2d(1392, eps=0.001, momentum=0.1, affine=True, track_running_stats=True)\n  (conv_dw): Conv2d(1392, 1392, kernel_size=(5, 5), stride=(1, 1), padding=(2, 2), groups=1392, bias=False)\n  (bn2): BatchNorm2d(1392, eps=0.001, momentum=0.1, affine=True, track_running_stats=True)\n  (se): SqueezeExcite(\n    (conv_reduce): Conv2d(1392, 58, kernel_size=(1, 1), stride=(1, 1))\n    (conv_expand): Conv2d(58, 1392, kernel_size=(1, 1), stride=(1, 1))\n  )\n  (conv_pwl): Conv2d(1392, 232, kernel_size=(1, 1), stride=(1, 1), bias=False)\n  (bn3): BatchNorm2d(232, eps=0.001, momentum=0.1, affine=True, track_running_stats=True)\n)", "parameters": [["conv_pw.weight", [1392, 232, 1, 1]], ["bn1.weight", [1392]], ["bn1.bias", [1392]], ["conv_dw.weight", [1392, 1, 5, 5]], ["bn2.weight", [1392]], ["bn2.bias", [1392]], ["se.conv_reduce.weight", [58, 1392, 1, 1]], ["se.conv_reduce.bias", [58]], ["se.conv_expand.weight", [1392, 58, 1, 1]], ["se.conv_expand.bias", [1392]], ["conv_pwl.weight", [232, 1392, 1, 1]], ["bn3.weight", [232]], ["bn3.bias", [232]]], "output_shape": [[256, 232, 2, 2]], "num_parameters": [322944, 1392, 1392, 34800, 1392, 1392, 80736, 58, 80736, 1392, 322944, 232, 232]}, {"name": "blocks.5.2", "id": 140438679115088, "class_name": "InvertedResidual(\n  (conv_pw): Conv2d(232, 1392, kernel_size=(1, 1), stride=(1, 1), bias=False)\n  (bn1): BatchNorm2d(1392, eps=0.001, momentum=0.1, affine=True, track_running_stats=True)\n  (conv_dw): Conv2d(1392, 1392, kernel_size=(5, 5), stride=(1, 1), padding=(2, 2), groups=1392, bias=False)\n  (bn2): BatchNorm2d(1392, eps=0.001, momentum=0.1, affine=True, track_running_stats=True)\n  (se): SqueezeExcite(\n    (conv_reduce): Conv2d(1392, 58, kernel_size=(1, 1), stride=(1, 1))\n    (conv_expand): Conv2d(58, 1392, kernel_size=(1, 1), stride=(1, 1))\n  )\n  (conv_pwl): Conv2d(1392, 232, kernel_size=(1, 1), stride=(1, 1), bias=False)\n  (bn3): BatchNorm2d(232, eps=0.001, momentum=0.1, affine=True, track_running_stats=True)\n)", "parameters": [["conv_pw.weight", [1392, 232, 1, 1]], ["bn1.weight", [1392]], ["bn1.bias", [1392]], ["conv_dw.weight", [1392, 1, 5, 5]], ["bn2.weight", [1392]], ["bn2.bias", [1392]], ["se.conv_reduce.weight", [58, 1392, 1, 1]], ["se.conv_reduce.bias", [58]], ["se.conv_expand.weight", [1392, 58, 1, 1]], ["se.conv_expand.bias", [1392]], ["conv_pwl.weight", [232, 1392, 1, 1]], ["bn3.weight", [232]], ["bn3.bias", [232]]], "output_shape": [[256, 232, 2, 2]], "num_parameters": [322944, 1392, 1392, 34800, 1392, 1392, 80736, 58, 80736, 1392, 322944, 232, 232]}, {"name": "blocks.5.3", "id": 140438676984832, "class_name": "InvertedResidual(\n  (conv_pw): Conv2d(232, 1392, kernel_size=(1, 1), stride=(1, 1), bias=False)\n  (bn1): BatchNorm2d(1392, eps=0.001, momentum=0.1, affine=True, track_running_stats=True)\n  (conv_dw): Conv2d(1392, 1392, kernel_size=(5, 5), stride=(1, 1), padding=(2, 2), groups=1392, bias=False)\n  (bn2): BatchNorm2d(1392, eps=0.001, momentum=0.1, affine=True, track_running_stats=True)\n  (se): SqueezeExcite(\n    (conv_reduce): Conv2d(1392, 58, kernel_size=(1, 1), stride=(1, 1))\n    (conv_expand): Conv2d(58, 1392, kernel_size=(1, 1), stride=(1, 1))\n  )\n  (conv_pwl): Conv2d(1392, 232, kernel_size=(1, 1), stride=(1, 1), bias=False)\n  (bn3): BatchNorm2d(232, eps=0.001, momentum=0.1, affine=True, track_running_stats=True)\n)", "parameters": [["conv_pw.weight", [1392, 232, 1, 1]], ["bn1.weight", [1392]], ["bn1.bias", [1392]], ["conv_dw.weight", [1392, 1, 5, 5]], ["bn2.weight", [1392]], ["bn2.bias", [1392]], ["se.conv_reduce.weight", [58, 1392, 1, 1]], ["se.conv_reduce.bias", [58]], ["se.conv_expand.weight", [1392, 58, 1, 1]], ["se.conv_expand.bias", [1392]], ["conv_pwl.weight", [232, 1392, 1, 1]], ["bn3.weight", [232]], ["bn3.bias", [232]]], "output_shape": [[256, 232, 2, 2]], "num_parameters": [322944, 1392, 1392, 34800, 1392, 1392, 80736, 58, 80736, 1392, 322944, 232, 232]}, {"name": "blocks.5.4", "id": 140440670709296, "class_name": "InvertedResidual(\n  (conv_pw): Conv2d(232, 1392, kernel_size=(1, 1), stride=(1, 1), bias=False)\n  (bn1): BatchNorm2d(1392, eps=0.001, momentum=0.1, affine=True, track_running_stats=True)\n  (conv_dw): Conv2d(1392, 1392, kernel_size=(5, 5), stride=(1, 1), padding=(2, 2), groups=1392, bias=False)\n  (bn2): BatchNorm2d(1392, eps=0.001, momentum=0.1, affine=True, track_running_stats=True)\n  (se): SqueezeExcite(\n    (conv_reduce): Conv2d(1392, 58, kernel_size=(1, 1), stride=(1, 1))\n    (conv_expand): Conv2d(58, 1392, kernel_size=(1, 1), stride=(1, 1))\n  )\n  (conv_pwl): Conv2d(1392, 232, kernel_size=(1, 1), stride=(1, 1), bias=False)\n  (bn3): BatchNorm2d(232, eps=0.001, momentum=0.1, affine=True, track_running_stats=True)\n)", "parameters": [["conv_pw.weight", [1392, 232, 1, 1]], ["bn1.weight", [1392]], ["bn1.bias", [1392]], ["conv_dw.weight", [1392, 1, 5, 5]], ["bn2.weight", [1392]], ["bn2.bias", [1392]], ["se.conv_reduce.weight", [58, 1392, 1, 1]], ["se.conv_reduce.bias", [58]], ["se.conv_expand.weight", [1392, 58, 1, 1]], ["se.conv_expand.bias", [1392]], ["conv_pwl.weight", [232, 1392, 1, 1]], ["bn3.weight", [232]], ["bn3.bias", [232]]], "output_shape": [[256, 232, 2, 2]], "num_parameters": [322944, 1392, 1392, 34800, 1392, 1392, 80736, 58, 80736, 1392, 322944, 232, 232]}, {"name": "blocks.5.5", "id": 140440670710192, "class_name": "InvertedResidual(\n  (conv_pw): Conv2d(232, 1392, kernel_size=(1, 1), stride=(1, 1), bias=False)\n  (bn1): BatchNorm2d(1392, eps=0.001, momentum=0.1, affine=True, track_running_stats=True)\n  (conv_dw): Conv2d(1392, 1392, kernel_size=(5, 5), stride=(1, 1), padding=(2, 2), groups=1392, bias=False)\n  (bn2): BatchNorm2d(1392, eps=0.001, momentum=0.1, affine=True, track_running_stats=True)\n  (se): SqueezeExcite(\n    (conv_reduce): Conv2d(1392, 58, kernel_size=(1, 1), stride=(1, 1))\n    (conv_expand): Conv2d(58, 1392, kernel_size=(1, 1), stride=(1, 1))\n  )\n  (conv_pwl): Conv2d(1392, 232, kernel_size=(1, 1), stride=(1, 1), bias=False)\n  (bn3): BatchNorm2d(232, eps=0.001, momentum=0.1, affine=True, track_running_stats=True)\n)", "parameters": [["conv_pw.weight", [1392, 232, 1, 1]], ["bn1.weight", [1392]], ["bn1.bias", [1392]], ["conv_dw.weight", [1392, 1, 5, 5]], ["bn2.weight", [1392]], ["bn2.bias", [1392]], ["se.conv_reduce.weight", [58, 1392, 1, 1]], ["se.conv_reduce.bias", [58]], ["se.conv_expand.weight", [1392, 58, 1, 1]], ["se.conv_expand.bias", [1392]], ["conv_pwl.weight", [232, 1392, 1, 1]], ["bn3.weight", [232]], ["bn3.bias", [232]]], "output_shape": [[256, 232, 2, 2]], "num_parameters": [322944, 1392, 1392, 34800, 1392, 1392, 80736, 58, 80736, 1392, 322944, 232, 232]}, {"name": "blocks.6.0", "id": 140440670709464, "class_name": "InvertedResidual(\n  (conv_pw): Conv2d(232, 1392, kernel_size=(1, 1), stride=(1, 1), bias=False)\n  (bn1): BatchNorm2d(1392, eps=0.001, momentum=0.1, affine=True, track_running_stats=True)\n  (conv_dw): Conv2d(1392, 1392, kernel_size=(3, 3), stride=(1, 1), padding=(1, 1), groups=1392, bias=False)\n  (bn2): BatchNorm2d(1392, eps=0.001, momentum=0.1, affine=True, track_running_stats=True)\n  (se): SqueezeExcite(\n    (conv_reduce): Conv2d(1392, 58, kernel_size=(1, 1), stride=(1, 1))\n    (conv_expand): Conv2d(58, 1392, kernel_size=(1, 1), stride=(1, 1))\n  )\n  (conv_pwl): Conv2d(1392, 384, kernel_size=(1, 1), stride=(1, 1), bias=False)\n  (bn3): BatchNorm2d(384, eps=0.001, momentum=0.1, affine=True, track_running_stats=True)\n)", "parameters": [["conv_pw.weight", [1392, 232, 1, 1]], ["bn1.weight", [1392]], ["bn1.bias", [1392]], ["conv_dw.weight", [1392, 1, 3, 3]], ["bn2.weight", [1392]], ["bn2.bias", [1392]], ["se.conv_reduce.weight", [58, 1392, 1, 1]], ["se.conv_reduce.bias", [58]], ["se.conv_expand.weight", [1392, 58, 1, 1]], ["se.conv_expand.bias", [1392]], ["conv_pwl.weight", [384, 1392, 1, 1]], ["bn3.weight", [384]], ["bn3.bias", [384]]], "output_shape": [[256, 384, 2, 2]], "num_parameters": [322944, 1392, 1392, 12528, 1392, 1392, 80736, 58, 80736, 1392, 534528, 384, 384]}, {"name": "blocks.6.1", "id": 140438679947864, "class_name": "InvertedResidual(\n  (conv_pw): Conv2d(384, 2304, kernel_size=(1, 1), stride=(1, 1), bias=False)\n  (bn1): BatchNorm2d(2304, eps=0.001, momentum=0.1, affine=True, track_running_stats=True)\n  (conv_dw): Conv2d(2304, 2304, kernel_size=(3, 3), stride=(1, 1), padding=(1, 1), groups=2304, bias=False)\n  (bn2): BatchNorm2d(2304, eps=0.001, momentum=0.1, affine=True, track_running_stats=True)\n  (se): SqueezeExcite(\n    (conv_reduce): Conv2d(2304, 96, kernel_size=(1, 1), stride=(1, 1))\n    (conv_expand): Conv2d(96, 2304, kernel_size=(1, 1), stride=(1, 1))\n  )\n  (conv_pwl): Conv2d(2304, 384, kernel_size=(1, 1), stride=(1, 1), bias=False)\n  (bn3): BatchNorm2d(384, eps=0.001, momentum=0.1, affine=True, track_running_stats=True)\n)", "parameters": [["conv_pw.weight", [2304, 384, 1, 1]], ["bn1.weight", [2304]], ["bn1.bias", [2304]], ["conv_dw.weight", [2304, 1, 3, 3]], ["bn2.weight", [2304]], ["bn2.bias", [2304]], ["se.conv_reduce.weight", [96, 2304, 1, 1]], ["se.conv_reduce.bias", [96]], ["se.conv_expand.weight", [2304, 96, 1, 1]], ["se.conv_expand.bias"
…
